model_checkpoint/document_embedding_model_checkpoint.pth (torch, 395350 bytes, 24 tensors)

convs.0.weight f4 [100, 100, 1]
000000 70 d1 86 bd 65 8f 44 be 69 b8 9f bd 5c 1d 19 bd
       -0.06582916 -0.19195326 -0.07798845 -0.037381515
000010 85 82 43 bd fa 16 5d 3e bc 51 4e 3e 3f 83 a8 bb
       -0.047731895 0.21590796 0.20148367 -0.005142599
000020 ad 6c 00 3d 11 dd 02 bd 36 7a 8d 3c ae bf a5 bd
       0.03135364 -0.031949107 0.017270189 -0.080932006
000030 ab 41 81 3d 82 eb b3 bd 00 7e c6 3d 8e 97 f9 bd
       0.06311353 -0.08785154 0.09692001 -0.1218711
000040 0c ba c9 3d ba 0c 9d bd e5 60 38 be a7 19 cb 3e
       0.09849939 -0.07668443 -0.18005712 0.3966801
000050 ec ba 61 3c 85 a4 b1 bc 3a 0a 30 bd 31 bd 53 bd
       0.013777476 -0.021684894 -0.042978503 -0.0516941
000060 53 49 91 3c d1 66 7c bd 07 13 2b 3e 66 60 ae bd
       0.017735159 -0.06162149 0.16706477 -0.0851448
000070 6b 91 33 be ea 64 55 bd e3 92 77 3a 9c 1c ad bd
       -0.17535941 -0.052098192 0.000944419 -0.084527224
000080 30 4d 0e be 0f ff 48 3b d8 d3 47 3e 4e ff 0b be
       -0.13896632 0.0030669605 0.19514406 -0.1367161
000090 38 a4 56 3c 85 88 d5 3d cb de fb 3d 95 3f 69 3e
       0.013100676 0.1042643 0.12298354 0.22778161
0000a0 88 96 0c 3e e7 e4 4a bd c9 da 22 3e 67 f7 19 3e
       0.13729298 -0.049534705 0.15903772 0.15035783
0000b0 bf 62 9c 3d 53 52 71 bd 83 d3 40 3c d6 56 a2 bd
       0.07636022 -0.0589164 0.011769178 -0.07926719
0000c0 71 c6 cd bc eb 83 b3 3c 19 13 35 be a2 37 36 3e
       -0.025119038 0.02191349 -0.17683066 0.1779466
0000d0 db 40 d8 3d 26 86 1b 3e 28 c9 36 bd c6 f2 86 bd
       0.10559245 0.15187892 -0.04462543 -0.06589274
0000e0 80 06 2b be 44 b9 1b bd c7 07 e3 3d 74 94 20 3d
       -0.16701698 -0.03801848 0.11085468 0.039204076
0000f0 bf 21 9e 3d 77 41 a2 bb 73 3c 97 bd 50 da 1c be
       0.0772128 -0.0049516517 -0.07384577 -0.15317655
000100 8f 23 5f be 09 66 57 3d bf c7 ac 3d fb a3 30 be
       -0.21790908 0.052587543 0.08436536 -0.17250054
000110 1d 0b 8d 3e 39 84 bd 3d b4 cb fb bc 44 30 0b 3d
       0.2754754 0.09253735 -0.030736782 0.033981577
000120 0a 51 03 be 51 c7 59 be 61 d0 3d 3e c6 a9 bb bc
       -0.12823883 -0.2126744 0.18536521 -0.022908103
000130 9e e3 94 3e 7c db ca 3d 7e 05 d9 bd 98 b8 0f bd
       0.29079908 0.099051446 -0.10596751 -0.03508815
000140 07 53 cf bd 4f 99 0e be 84 b8 37 3e 9e 83 9d 3e
       -0.10123258 -0.1392567 0.17941481 0.30764478
000150 06 c0 89 bd c5 35 6d 3e f5 9f 37 bd 74 7b 29 be
       -0.06726079 0.23165043 -0.04483028 -0.16551
000160 98 7a 99 3d 97 d2 b5 bd 8e d8 a0 3d 62 8e 23 3e
       0.07494086 -0.088780575 0.078538045 0.15972283
000170 e6 33 18 3e 7d 09 a9 bd 9e 2b ac bc 54 9e 6b 3e
       0.14863548 -0.08253763 -0.021016892 0.23009616
000180 a8 a7 da bd 42 53 0f 3d e4 ce b8 bd 36 4e 23 bd
       -0.10676509 0.03499151 -0.09023836 -0.03986951
000190 4c 57 e9 bc 8c 23 a7 bd 86 a1 c3 bd eb 59 b2 bd
       -0.02848401 -0.08161077 -0.095522925 -0.08708557
0001a0 cc 74 4b be 9b f0 20 3e 6e c7 9c bd 88 c9 50 bd
       -0.19868773 0.15716784 -0.07655226 -0.050973445
0001b0 32 2e 83 be 41 61 db bd d5 eb bf bd 5c b2 29 3d
       -0.25621182 -0.10711909 -0.09371153 0.041429862
0001c0 bc e0 00 be 2f 3b 23 3e aa 11 20 bd 14 36 a3 3d
       -0.1258573 0.15940545 -0.039079346 0.07969299
0001d0 e7 5a ba 3c d8 ed 4b be cd 09 68 3d 3c bb 88 3e
       0.022748424 -0.19914949 0.05664997 0.26705348
0001e0 7f 5f ea 3d 60 28 85 bd 18 1b 22 be b6 24 51 be
       0.11443996 -0.065018415 -0.15830648 -0.2042416
0001f0 38 47 0c 3d 88 7a 8d bb 6c b2 81 bd d9 c4 9a 3d
       0.034247607 -0.0043175854 -0.063328594 0.07557077
000200 4c a7 8f bd f8 cf 0d 3e ca 02 9c 3d 8c c4 72 be
       -0.07014331 0.13848865 0.076177195 -0.23707789
000210 15 14 0e bd a4 31 bc bc 25 c8 e0 3d 8c 96 9c 3e
       -0.03468712 -0.02297289 0.109756745 0.30583608
000220 06 9c 54 bc 93 83 13 be 5e cd 83 be de 2e 36 bd
       -0.012976652 -0.1440566 -0.2574262 -0.04447829
000230 96 ab 71 3c f5 ad 93 3d 10 d9 87 3c 85 68 24 3b
       0.014750382 0.07210914 0.016582996 0.0025086713
000240 33 09 46 be 84 db c6 bd 0f a0 07 be 0a 5c 09 bd
       -0.19339447 -0.09709838 -0.13244651 -0.03353504
000250 46 f3 e7 3d 82 d6 0d be 67 d6 df 3d 28 69 c1 3d
       0.113256976 -0.1385136 0.10929566 0.09443885
000260 89 14 02 be 5c e3 fc 3b 95 13 33 be 21 37 8e 3d
       -0.12703146 0.007717533 -0.17487939 0.06944109
000270 26 a2 18 3c a6 1c 68 3e 3d 12 f7 bc a3 81 0e bd
       0.009316003 0.22667179 -0.030160064 -0.0347916
000280 ef 81 f9 3c 3c 9f 36 3e d4 76 47 bd a0 f0 75 3c
       0.030457465 0.1783418 -0.048697308 0.015010983
000290 66 7a 23 bd b8 1f c5 bd 68 af 4e be 73 aa 28 be
       -0.03991165 -0.096251905 -0.201841 -0.16471271
0002a0 32 b1 3c 3d ec 4f c0 3c fc a6 09 3e ec c0 2e be
       0.046067424 0.02347561 0.13442606 -0.17065781
0002b0 11 27 f9 3d fa 27 d8 bd 38 e5 a7 bd 75 72 55 be
       0.121656545 -0.105545 -0.08198017 -0.20844443
0002c0 a8 95 3f be c9 5b 03 be bf 05 a1 bd 7f 87 aa 3e
       -0.18709433 -0.12827982 -0.07862424 0.333065
0002d0 c9 ee 7a 3d ec d2 95 3d a8 58 33 be e4 a2 21 bd
       0.06126288 0.07315621 -0.17514288 -0.039461985
0002e0 d1 6f 06 be 7f 14 b6 bd 5a 36 0d 3e 4a 09 17 be
       -0.13128592 -0.08890628 0.13790265 -0.14749637
0002f0 f9 27 e1 bc 1d da 77 bd 0c 5e e8 3c 3d ce 08 be
       -0.02748488 -0.060510743 0.028365158 -0.13359924
000300 c1 c9 39 3e 93 6c db 3d eb 0c 78 bd de 9e 30 bd
       0.1814337 0.10714068 -0.060559195 -0.043120258
000310 37 d5 11 3c 23 01 9c 3d 96 42 30 be 2b 61 3e bd
       0.008900932 0.07617404 -0.172129 -0.046479385
000320 e5 47 a9 bd 02 97 10 bd cb b1 2d 3e 0d 20 76 bc
       -0.08265666 -0.035300262 0.16962354 -0.01502229
000330 f2 cd 87 bd 15 b7 8d bd 29 95 46 bc 74 a1 60 be
       -0.06631078 -0.06919686 -0.0121205235 -0.2193659
000340 1d c4 95 3d 02 f6 c1 bd cc 11 8e bc c6 05 b7 bd
       0.07312796 -0.094707504 -0.01734247 -0.08936648
000350 c9 e8 90 3d 06 05 ea 3d 1a 4c 03 bd be f6 eb 3d
       0.0707565 0.114267394 -0.032054998 0.11521672
000360 7a 19 24 be 43 9b 90 3e 17 ad 9a 3d 3e 39 0b be
       -0.16025344 0.28243455 0.075525455 -0.13596055
000370 3e d3 78 bc 4f 88 d4 3d 55 dc ad bd 58 a3 69 bc
       -0.015187083 0.10377561 -0.084892906 -0.014260136
000380 51 7b ae bb 1c d8 41 3c f8 b8 19 bd 05 96 67 be
       -0.005324759 0.01183131 -0.037529916 -0.22615822
000390 d9 06 70 3c 16 26 b5 be 57 06 8d 3e 48 14 8b bd
       0.01465007 -0.3538062 0.275439 -0.06790978
0003a0 97 57 82 bd 44 7e ad bd ed 24 3b 3e cb f8 fb 3c
       -0.06364363 -0.08471349 0.18275805 0.030758282
0003b0 63 7c 10 bc 94 ef 30 3d 0d 5e 8e 3c da 7a 0d bd
       -0.008818719 0.04319723 0.017378831 -0.03454099
0003c0 0c 04 00 be f5 df 26 be 33 31 d6 bc 96 07 c8 3c
       -0.12501544 -0.1629637 -0.026146507 0.02441768
0003d0 37 88 cd 3b a5 b0 68 bd 7a db 40 bd 11 bb 3a 3d
       0.0062723416 -0.056809086 -0.04708431 0.045588557
0003e0 1c c3 4f 3d d1 86 39 bd 41 87 93 bc f9 45 1d 3d
       0.05072318 -0.045294587 -0.01800883 0.03839681
0003f0 c9 f3 2a bd 0b 43 63 be 1b e8 e1 3d 7b 0a 8b 3d
       -0.041736398 -0.22193544 0.11030599 0.06789108

convs.0.bias f4 [100]
000000 1e b7 b4 be 29 59 a3 be 1a 57 3f be ce a9 98 be
       -0.35295957 -0.3190396 -0.1868557 -0.2981705
000010 9e 90 3d be 0f 98 01 bf ed 34 b1 be 5e cf b9 be
       -0.18512198 -0.5062265 -0.34610692 -0.3629102
000020 3b 30 9a be 48 02 82 be 54 a4 94 be e1 23 80 be
       -0.30114922 -0.25392365 -0.29031622 -0.25027373
000030 f6 68 cf be 8b 08 ba be cc af 14 bf db f9 5e be
       -0.40509766 -0.36334643 -0.58080745 -0.21775
000040 ee 0d b5 be e3 c4 f3 be 4f df a4 be ad 14 b4 be
       -0.3536219 -0.4761115 -0.3220162 -0.35172024
000050 85 69 b2 be 81 32 1c be de e5 bb be 06 7a 85 be
       -0.3484613 -0.1525364 -0.36698812 -0.2606966
000060 51 9d bd be 10 d1 d9 be 9b 31 f5 be cd 76 7c be
       -0.37034085 -0.42542315 -0.47889408 -0.24654694
000070 38 17 93 be 24 56 01 bf 78 d2 c1 be f8 e7 21 bf
       -0.28728652 -0.50522065 -0.37855887 -0.6324458
000080 1d f2 6c be 13 4d 42 be 39 fa fd be 91 d5 8d be
       -0.23139234 -0.18974714 -0.49604967 -0.27702
000090 20 eb f7 be d4 ba 26 bf a0 0a 0b bf d1 50 35 be
       -0.48421574 -0.6512883 -0.5431309 -0.1770661
0000a0 d3 8d ac be df d5 6d be 19 41 f3 be b1 63 85 be
       -0.33701953 -0.23226117 -0.47510603 -0.2605262
0000b0 ba 21 82 be 6f 73 04 bf 5a 97 97 be 6a e1 8b be
       -0.25416356 -0.5173864 -0.2960766 -0.27320415
0000c0 80 b1 19 be 80 01 9d be b9 93 7c be f2 7a f8 be
       -0.15009117 -0.30665207 -0.24665727 -0.485313
0000d0 d1 ce bd be 19 1b 1d be 96 a2 d0 be 48 24 da be
       -0.3707185 -0.15342368 -0.40749043 -0.42605805
0000e0 16 29 e8 be 7b b6 aa be 3b 95 84 be 45 49 90 be
       -0.45343846 -0.33342347 -0.25895104 -0.281809
0000f0 e8 e9 ac be 03 a0 0f bf 9c 7b fd be e0 00 0f be
       -0.33772206 -0.56103534 -0.4950837 -0.13965178
000100 05 80 42 be bd 11 b0 be 4e d5 a7 be f7 24 a1 be
       -0.18994148 -0.34388533 -0.32779926 -0.31473514
000110 9a 24 96 be a5 6e ca be 94 b5 e6 be 00 ff a1 be
       -0.293248 -0.3953754 -0.45060408 -0.31639862
000120 b6 d9 b3 be 1d c9 1f be 8e 5b fb be 81 77 9e be
       -0.35127038 -0.15604062 -0.49093288 -0.3095055
000130 26 49 87 be 1f 11 06 bd a0 f5 a6 be ca 7e 86 be
       -0.26422995 -0.03273117 -0.32609272 -0.26268607
000140 3b 41 d6 be b8 46 a4 be df 6b dc be 27 f3 d4 be
       -0.41846642 -0.32085204 -0.4305105 -0.4159176
000150 68 42 01 bf 3f 98 9d be cd c4 ba be 43 38 a1 be
       -0.5049195 -0.30780217 -0.36478272 -0.31488237
000160 0c cb db be 65 fc 9e be 21 16 b0 be e9 bb 9d be
       -0.4292835 -0.31051937 -0.34391883 -0.30807427
000170 65 99 79 be 31 40 17 bd 58 81 73 be f9 57 15 bf
       -0.24374922 -0.036926452 -0.2377981 -0.5833736
000180 f1 b0 e0 be f1 d1 f9 be 8e 7a 51 be 3d 75 94 be
       -0.43884996 -0.48792985 -0.20456907 -0.28995696

convs.1.weight f4 [100, 100, 1]
000000 15 9a 1c be f9 ea 9e bd 84 41 cf 3d 56 eb c0 3d
       -0.15293153 -0.07759661 0.10119918 0.09419887
000010 d1 7a 6b be 04 e0 81 3d 00 70 2d 3a 65 a6 cf bd
       -0.2299607 0.06341556 0.00066161156 -0.10139159
000020 74 0f 8f 3d b5 68 12 3d 7a b7 0b 3e 95 3e 59 3e
       0.06985369 0.035744388 0.1364421 0.2121528
000030 86 38 72 3e fa a9 e3 3d 9c 84 79 3d da 9b 82 3e
       0.23654374 0.11116405 0.06091748 0.2550953
000040 3a 54 45 bb 55 60 a4 3c 2c ac 0e 3d ca f1 1d 3d
       -0.0030110017 0.020065466 0.034832165 0.038560666
000050 ca e2 9f bc 88 38 d4 bd 7d c7 97 3d 60 f6 10 3e
       -0.019517321 -0.10362345 0.07411096 0.14156485
000060 4e 80 83 3e 90 d4 49 3e 95 05 0f be 40 f9 f4 bd
       0.25683826 0.19709992 -0.13966973 -0.11961603
000070 0b da c6 bd a2 a8 0d bd 60 9c 06 3e 21 b6 1a 3e
       -0.09709557 -0.03458465 0.1314559 0.15108539
000080 21 a6 e3 bd e8 67 19 3d 3a 3b b9 3b d8 85 83 3d
       -0.11115671 0.03745261 0.0056528123 0.06422013
000090 90 76 2a bd 50 32 ac 3d bf 8d e1 3d 7c b2 ac 3d
       -0.041616976 0.08408034 0.11013364 0.08432481
0000a0 fe 17 ad 3c 2d 7f 11 3d b1 32 d0 bd 7e 6f 7d 3e
       0.021129604 0.035521675 -0.101659186 0.24749562
0000b0 fc 87 ee 3d 05 dc f1 bd d3 8d e2 3b 80 32 b6 bd
       0.11647031 -0.118095435 0.0069138794 -0.08896351
0000c0 b2 fd ef bd 97 fc 1c 3d d4 54 66 bc 34 36 a0 bb
       -0.117183104 0.038326826 -0.014058311 -0.004889274
0000d0 50 d1 ef bd e0 ad 21 3e ba f7 a9 be 5e 28 b3 bc
       -0.11709845 0.15788984 -0.33196813 -0.021869835
0000e0 83 6f d9 3d de e9 fa bd 01 83 55 3d 96 5e 9c bc
       0.10616972 -0.12251638 0.05212689 -0.01908807
0000f0 77 2f af 3d 76 f4 3d 3e 44 ec 74 be ca a0 9f 3d
       0.08553975 0.18550286 -0.23918253 0.0779434
000100 eb 1f ff bd e0 54 98 bc f3 8a 1b 3d de ef 8d 3c
       -0.1245726 -0.018595159 0.03797431 0.017326292
000110 ba 27 a8 be 52 bd a7 bd cb c5 00 3e 68 2b aa 3c
       -0.3284281 -0.08190407 0.12575452 0.02077265
000120 fe b6 51 bd f2 1d 3f 3e 0e 8d 51 be cf a3 35 3c
       -0.051199906 0.18663767 -0.20463964 0.011086418
000130 44 e8 0b be 18 f8 9f 3d 22 41 35 bc 62 f6 00 bd
       -0.13662821 0.07810992 -0.011062892 -0.03148497
000140 19 46 31 bd 3a 74 ad 3d f5 17 80 bd e3 1b 15 bd
       -0.04327974 0.08469434 -0.062545694 -0.036403548
000150 44 93 07 3e f4 00 b0 bd 0d 97 91 bd fc 36 99 bd
       0.13239771 -0.08593932 -0.07108889 -0.074811906
000160 a3 67 a3 3d c0 8e 6d bd 5e 88 1e be 11 23 1f bc
       0.079787515 -0.057997465 -0.15481707 -0.00971295
000170 50 ef 80 bd 08 55 79 3e c8 23 3b 3e c4 cc 40 be
       -0.06295645 0.24348843 0.18275368 -0.18828112
000180 00 7c 89 bc 4f c8 1f bd e1 32 09 be 6e e0 6b bd
       -0.01678276 -0.03900939 -0.13398315 -0.05758708
000190 ea d4 90 be 2f c4 b5 bd 86 ef 82 3e c5 86 ef 3d
       -0.2828744 -0.0887531 0.25573367 0.11695627
0001a0 ff 75 f8 bd 99 a7 c7 3d 9c 06 0f 3e cb 34 1a be
       -0.12131881 0.097487636 0.13967365 -0.15059201
0001b0 f1 9a be bd c9 5f a9 bc a2 41 68 bc c1 f8 7d bc
       -0.093068965 -0.020675557 -0.014175804 -0.015501202
0001c0 f4 66 a8 3c a7 f4 95 3c a9 74 bb bc 72 07 50 3e
       0.020556904 0.018305136 -0.022882776 0.2031534
0001d0 82 e4 24 3d 54 fb 1d 3d 23 98 cf 3b 1e af 5b 3d
       0.040256985 0.038569763 0.006335275 0.0536338
0001e0 9a 60 b8 bd 3d 57 58 bd a7 e4 8f 3d 3b a2 6e 3a
       -0.090028 -0.052817572 0.07026034 0.0009103154
0001f0 65 53 d2 3b f4 5c a4 3c 89 32 17 3d 77 cd 14 bd
       0.006418633 0.020063855 0.03691343 -0.03632876
000200 2d d9 07 be dc c1 02 be 77 e5 33 3e c3 9c f0 bc
       -0.1326644 -0.12769264 0.17568003 -0.029371625
000210 ff 5c 82 3c 49 e9 ad be 63 40 34 3e 03 78 81 bc
       0.015913485 -0.33967045 0.17602687 -0.015804296
000220 8d 24 32 be aa 8d 16 be c3 6a 8e bd 24 bd 51 3d
       -0.17396756 -0.14702478 -0.06953957 0.05120577
000230 f9 82 9b 3d 74 ea ab be 66 4c 3b 3e ab db 34 be
       0.075933404 -0.3357731 0.18290862 -0.17661922
000240 38 52 9c bd 7f 05 1d be 44 b4 fd bc 20 3c c2 bd
       -0.076328695 -0.15334128 -0.030969746 -0.09484124
000250 db 61 25 b9 ee 02 18 be 87 89 63 bc 07 18 df bd
       -0.0001577208 -0.14844868 -0.01388777 -0.10893255
000260 3a d3 b6 bd d1 50 e3 3d 0e 8d cf 3d 7c 75 c1 bd
       -0.08927007 0.11099399 0.10134326 -0.094462365
000270 22 bf 07 bc c3 61 90 bd 1f 3f 3d 3e 6d 9d 99 bd
       -0.008285316 -0.070498966 0.1848111 -0.0750073
000280 71 b2 87 3d f1 02 bd 3d 1e a1 e7 bd 6a 5f 37 be
       0.06625832 0.09229077 -0.113100275 -0.17907491
000290 da 6e 97 be 99 55 ab bc f6 cb 56 3d 78 85 65 be
       -0.2957676 -0.02091484 0.052440606 -0.22414196
0002a0 ad 51 2b be 08 4f 35 3e f1 64 45 3e b8 d4 20 be
       -0.16730376 0.1770593 0.19276787 -0.15706146
0002b0 de 30 81 be 01 ff 01 bd 1e 5e a3 bd 51 ca de bd
       -0.25232595 -0.03173733 -0.07976936 -0.108784325
0002c0 90 71 d7 3d b4 34 a3 3d eb 4a 15 bc 0e 35 2f be
       0.10519707 0.07969037 -0.0091121 -0.17110083
0002d0 e3 ca 6c 3e 02 f6 5e 3e 43 2c d8 3c aa de 33 3e
       0.2312427 0.21773532 0.026388293 0.17565408
0002e0 81 44 27 3e 48 1e 1d 3d 67 45 8a 3e 6e e6 dd bd
       0.16334726 0.038358957 0.27006075 -0.108349666
0002f0 93 9e 07 bd 22 44 9b bd 3a 28 52 bd cd b7 4f 3e
       -0.033110213 -0.07581355 -0.051307894 0.20284958
000300 26 68 75 be 07 63 05 be 4c c5 90 bd 1f 73 2e 3d
       -0.2396551 -0.13026057 -0.070688814 0.042590257
000310 4e 91 06 be 5b 0a 14 3e 6a 3c fe 3c 28 9a a3 bc
       -0.13141367 0.14457075 0.031034667 -0.019970968
000320 3e 83 aa bd 5b 8b 88 bd e9 f2 17 3e fd 09 d9 bc
       -0.08325814 -0.06667205 0.14838757 -0.02649402
000330 68 1c 9d 3d b8 e1 60 be c5 0a 33 be f2 53 1a be
       0.07671434 -0.21961105 -0.17484577 -0.15071085
000340 67 28 bf 3d f2 cb 0c be 71 fb 64 bd 2e b2 37 be
       0.09333878 -0.13749674 -0.055903856 -0.17939064
000350 c4 a6 77 be 98 54 19 be 6a c7 43 3e 51 c8 82 be
       -0.2418471 -0.14973676 0.19119039 -0.25543454
000360 8e e6 92 3d 5d 9d 60 bd 4d e5 cd bd 2d a4 1f bd
       0.07172881 -0.054837573 -0.10053501 -0.03897493
000370 bd 96 b3 3d d2 00 e1 3d 27 49 25 be 87 2c d7 bd
       0.087689854 0.109864846 -0.16141187 -0.1050654
000380 6b 05 11 be fc 9c 03 3e ec c6 fe bc 2e 31 43 3d
       -0.14162223 0.12852854 -0.031100713 0.047654323
000390 4b db 35 bd 21 96 cb 3c ac dd 7d bb d8 42 a3 3d
       -0.044398587 0.02485186 -0.0038736863 0.07971734
0003a0 a9 14 03 3d 22 9a 75 bd 2b 4b c0 3d 58 95 2c 3d
       0.032002125 -0.059961446 0.09389337 0.042134613
0003b0 94 b1 fd 3c c6 fb ec 3d c4 c0 44 bd 7a 6e 87 3d
       0.030968465 0.115714595 -0.048035398 0.066128686
0003c0 70 5a e3 3d fb 55 b0 bd ed 3e 3f 3d de 3d 70 bc
       0.11101234 -0.086101495 0.04669087 -0.014663188
0003d0 7f e2 b9 bd 9f 2b 90 3c 71 29 35 3d b6 9e 8f 3d
       -0.09076404 0.017598925 0.044228975 0.070126936
0003e0 19 10 70 3e 05 76 45 3c d0 3e 3c 3d 16 d4 4e 3d
       0.23443641 0.012052064 0.04595834 0.05049523
0003f0 9d 2d 02 3d 4f 5c 8e 3d 54 69 24 3e ad 16 ae 3e
       0.03178178 0.069512 0.16055804 0.34001675

convs.1.bias f4 [100]
000000 78 5e 24 be ba 13 d1 be d2 01 de bd b3 bc 6e be
       -0.16051662 -0.40835363 -0.10840191 -0.2331417
000010 17 22 27 bf 6f 04 8b be 4d e1 22 bf c3 c3 ce be
       -0.6528639 -0.2715182 -0.6362503 -0.4038373
000020 16 c5 59 be 4a 29 ad be 56 56 b8 be 33 38 10 be
       -0.21266589 -0.33820564 -0.3600337 -0.14083938
000030 b9 d9 fc be d0 11 a5 be 3e 67 20 be 51 c5 d6 be
       -0.4938486 -0.32240152 -0.15664384 -0.41947415
000040 1c 01 cf be ba 22 bc be e2 f9 e6 be b2 0d b5 be
       -0.40430534 -0.36745244 -0.4511252 -0.3536201
000050 74 c2 d4 be 73 67 fe be df 12 a0 be c2 56 07 bf
       -0.41554606 -0.496883 -0.31264398 -0.52866757
000060 ca 08 cf be 83 c0 ef be 54 90 ad be 9f 2f 0c bf
       -0.40436393 -0.46826562 -0.33899176 -0.54760164
000070 a4 1a 3d be 87 56 8b be 8c 63 44 be a5 2e 96 be
       -0.18467194 -0.27214453 -0.19178599 -0.29332462
000080 e6 6f d2 be a2 02 fa be 99 f5 a4 be 06 0b ab be
       -0.41100997 -0.48830134 -0.32218626 -0.33406848
000090 81 56 9d be 24 2f ac be 90 f2 fb bd 8e 2e 9f be
       -0.3073006 -0.33629715 -0.123021245 -0.31090206
0000a0 9d d5 89 be 99 a1 5b be d2 2f a7 be af 12 bb be
       -0.26920786 -0.21448363 -0.32653672 -0.36537692
0000b0 56 e4 04 bf 3e 76 06 bf 06 81 9f be b7 b5 74 be
       -0.51910913 -0.52524173 -0.31153125 -0.23897444
0000c0 f0 c3 a8 be af b5 c4 be dc 16 55 bd 53 b8 09 bf
       -0.32961988 -0.38419864 -0.052023754 -0.5379688
0000d0 64 35 7a be 87 d7 f9 be 55 27 0f bf 0b 9f f1 be
       -0.2443443 -0.48797247 -0.5591939 -0.47191653
0000e0 9d 1a 96 be 38 ab d1 be dc 61 8b be d3 c3 9a be
       -0.2931718 -0.40950942 -0.27223098 -0.30227527
0000f0 3b 00 d7 be 79 44 60 be f8 e3 07 bf 5a 2c 27 be
       -0.41992363 -0.2190112 -0.5308223 -0.16325513
000100 12 14 91 be d2 7e c8 be 5a 96 00 bf 94 f1 aa be
       -0.28335625 -0.39159256 -0.5022942 -0.33387434
000110 53 4c 8d be 2a 97 a1 be 9c 36 b1 be 86 08 78 be
       -0.27597293 -0.31560642 -0.34611976 -0.24222001
000120 a0 89 8c be 02 b9 db bd 93 eb e8 bd 7c 71 91 be
       -0.2744875 -0.10728647 -0.11373057 -0.28406894
000130 2e 4b 06 bf 39 0a b4 be 9b 4b e4 be 86 6a e1 be
       -0.52458465 -0.3516405 -0.44588932 -0.44026583
000140 17 1d 3a be b0 92 f1 be b7 61 51 bc 69 23 ee be
       -0.1817516 -0.47182226 -0.012779645 -0.4651139
000150 2e 79 8b be 98 25 99 be eb 72 d1 be 90 1e b4 be
       -0.2724089 -0.29911494 -0.40907988 -0.35179567
000160 6c e5 98 be 84 e9 ea be 7b 2e c0 be 1d cd b0 be
       -0.29862535 -0.45881283 -0.37535462 -0.3453149
000170 7d bc 28 be a0 a8 04 bf f0 af 8d be 54 8a a5 be
       -0.16478153 -0.518198 -0.27673292 -0.32332098
000180 9c 27 c1 be 18 1f 44 be b2 a4 9e be ba 0f be be
       -0.37725532 -0.19152486 -0.30985028 -0.37121373

convs.2.weight f4 [100, 100, 1]
000000 78 79 ae 3b 54 3c ad 3c e2 e2 2e 3e 59 a6 f6 bd
       0.005324539 0.02114693 0.17078736 -0.12043447
000010 90 bb 45 bd 03 21 3a 3d 87 14 65 be bb 73 80 3d
       -0.048274577 0.04544164 -0.22371112 0.06272074
000020 cb b6 77 3d b5 65 d7 bd 23 44 c7 39 db 57 ac 3e
       0.06047706 -0.10517446 0.00038007004 0.33660778
000030 f5 bb e0 bd fe 1d 13 3e 2d 06 10 be ac 2f 8b 3c
       -0.1097335 0.1436691 -0.14064856 0.016990505
000040 cc 87 fc bd 37 38 3b be f8 c9 89 3d 80 cf 90 3d
       -0.12330589 -0.18283163 0.067279756 0.070708275
000050 7c 22 f8 bd 33 9f f4 bd 5f a9 ad 3c d4 66 65 3e
       -0.121159524 -0.11944427 0.021198926 0.22402507
000060 be ac ce 3d 09 3f 05 3e c1 ea 7c bd b8 4d 54 bd
       0.10091542 0.13012327 -0.061747316 -0.05183193
000070 5f 3c d4 bd c0 e3 ae 3d e6 3d 11 3e c6 2c a8 3d
       -0.10363077 0.085395336 0.14183769 0.08211665
000080 fe fd 4a 3c 07 dd 94 bc dd 3b 2a be 0d e4 9b be
       0.012389658 -0.0181718 -0.16624399 -0.30447426
000090 fc 68 af 3d c7 12 0e 3d da fd 1a 3e 8f f0 22 3e
       0.08564946 0.034685876 0.15135899 0.15912078
0000a0 0b b9 b9 bd f6 a9 0e be b4 f8 8e bd 99 ef d3 3d
       -0.09068497 -0.13932022 -0.0698103 0.10348434
0000b0 06 12 31 be db 90 d5 3d 0b 94 f7 bd f7 94 c6 bd
       -0.17292032 0.104280196 -0.12088784 -0.096963815
0000c0 66 77 60 3d 89 ff ae 3c 65 ed 22 3d bf ef 35 bc
       0.054801367 0.021362083 0.03977718 -0.011104523
0000d0 0a 4b ca 3d 09 49 2a 3e 0a 13 4c 3d e6 df 32 3e
       0.09877594 0.16629423 0.049822845 0.17468223
0000e0 4b 90 14 be 6f 87 be be 19 8e bf 3d 51 65 0e be
       -0.14508168 -0.37212703 0.09353275 -0.13905837
0000f0 1f 26 c0 bd 3d 86 d6 3d 38 7d d6 3c 2e 96 86 3d
       -0.09382271 0.10474823 0.026182756 0.06571613
000100 8f a5 3e bd 67 86 b4 3b 90 82 06 3d 76 ea fa bb
       -0.046544608 0.005509186 0.032839358 -0.0076573445
000110 cc a8 0e bc 22 35 b1 3c 52 3b 35 bc a5 16 ec bd
       -0.0087072365 0.021631781 -0.011061506 -0.115277566
000120 54 e4 1a 3e fa d9 0a be 61 03 ab 3b 81 91 0e 3e
       0.15126163 -0.13559714 0.0052189087 0.13922693
000130 ae 65 30 3d 8f 68 e7 3b c9 cd 12 be 80 c8 96 bd
       0.04306572 0.007062025 -0.14336313 -0.07362461
000140 97 4c c2 3c a1 fa 6f 3b 03 b8 a3 bd b2 99 aa be
       0.023718162 0.0036617892 -0.07994082 -0.33320385
000150 64 95 09 be ae d7 f0 3d 54 85 f4 bd 0b 3e a7 bc
       -0.13435894 0.11759888 -0.11939493 -0.020415327
000160 bd 91 91 bd 4e 4c 86 3e 20 3f 4d be eb 93 78 3e
       -0.071078755 0.2623009 -0.20043612 0.24275176
000170 a4 8a 61 bb aa 4d 16 be 39 a5 9d bd 00 7d 57 3d
       -0.0034414912 -0.14678064 -0.07697529 0.052609444
000180 af c1 ae be 1e 21 5a be 91 94 95 bd ae 93 b6 3d
       -0.34132144 -0.21301696 -0.073037274 0.089148864
000190 77 fb 68 be 53 de 92 3d 17 be 03 3e 3a e1 3f 3d
       -0.22752176 0.07171311 0.12865482 0.046845652
0001a0 c1 1b d5 3d 55 37 63 be f7 2e 89 bd 1e 67 90 3d
       0.10405684 -0.22189076 -0.06698411 0.07050918
0001b0 6e c9 0f 3d 80 99 02 be 60 ee 60 3c 4e 59 39 bd
       0.035104208 -0.12753868 0.013728708 -0.045251183
0001c0 8e 63 5d be 44 16 d5 3c 8c 92 45 3e 1a a6 1b 3d
       -0.21620008 0.026011594 0.19294184 0.038000204
0001d0 c9 f2 ad 3d 63 fc 01 be c7 14 82 3d 59 c1 62 be
       0.08493573 -0.12693934 0.06351619 -0.22144069
0001e0 be 89 60 3c d8 17 56 be 82 c4 96 bd 46 9e c1 bd
       0.013704715 -0.20907533 -0.073617 -0.094540164
0001f0 e3 20 4c 3d 88 46 50 3d 83 7d af bb a1 4e 4e be
       0.04983605 0.050848514 -0.0053555383 -0.20147182
000200 fa 69 9d be 01 07 b5 3d 85 76 ac bd 5d 7f ae 3e
       -0.30744916 0.088392265 -0.08421043 0.34081545
000210 75 be b9 be 2d c8 82 3e d9 a0 69 bd 01 9f d5 bd
       -0.3627812 0.25543347 -0.057038162 -0.10430718
000220 0e dc c8 bd 77 61 9e bd a7 0b 26 be 63 df 4d be
       -0.09807597 -0.07733434 -0.16215383 -0.20104747
000230 22 09 40 bd 3e d1 39 be 3a 32 db 3d 96 ad f1 bd
       -0.04688371 -0.18146226 0.10702939 -0.11800687
000240 3b 18 ea bd 9d fd 69 3e 8e 6f 0a 3e da 5c 31 be
       -0.11430403 0.22850652 0.13519117 -0.17320576
000250 8c 2f b7 3d e0 b8 1d 3e cc 1d ef bb 40 26 30 3d
       0.08944616 0.15402555 -0.0072972532 0.043005228
000260 e5 08 6e bd 3e 5a 13 3e 6b 5f 29 3e 69 92 86 3e
       -0.05811395 0.14389893 0.16540305 0.26283577
000270 47 22 62 bd 7e 4c 65 bb e5 46 77 3e 4f 6b 37 be
       -0.05520847 -0.003498822 0.24148138 -0.17912029
000280 6e 9b da b9 5d 82 e4 bb 9a a3 ce bd e6 a6 05 3e
       -0.00041696004 -0.0069735483 -0.10089798 0.13051948
000290 f7 e7 30 3c e1 eb 96 3d 42 5b 87 bd 87 78 a1 be
       0.010797492 0.07369209 -0.06609203 -0.31537268
0002a0 2f 38 1c 3e fe d7 8f bd 2c 24 d8 bd 1e 6d 8b bb
       0.15255807 -0.07023619 -0.10553774 -0.004254951
0002b0 80 6d 31 be ea e5 1c 3d 03 c3 d2 3c 21 74 3e be
       -0.17326927 0.0383052 0.025727754 -0.18598987
0002c0 cc 2f 0d 3e 4c e9 7d bd fb 10 32 3e b1 a6 31 bd
       0.13787764 -0.061990067 0.1738929 -0.04337186
0002d0 68 42 36 bd e3 f9 23 3e 6c 03 78 bd 96 e7 f1 bd
       -0.044496924 0.16013293 -0.06055014 -0.1181175
0002e0 b6 97 89 bd 67 3e 30 be c4 a7 d1 3c fe 43 8f bc
       -0.0671839 -0.17211305 0.025592692 -0.017488476
0002f0 e0 ea 47 bd 5f e4 94 3d 0b 7a dd 3a 29 a2 13 3e
       -0.04880798 0.07270121 0.0016897334 0.14417328
000300 9d a7 a9 3b d0 52 5a be 04 ec 16 bd 55 ea 40 bd
       0.0051774518 -0.21320653 -0.036846176 -0.047098476
000310 39 9d b2 bd 15 48 2f 3d 08 9a 13 bb bb f2 18 be
       -0.08721394 0.042793352 -0.002252223 -0.14936344
000320 17 35 4b 3d 16 4a bb bd ec 11 ba 3d 30 e8 ab 3c
       0.049611177 -0.0914499 0.090854496 0.020984739
000330 e8 62 55 3e 4f f8 80 bd 4f 9b 97 3d c9 1c 18 be
       0.20838511 -0.06297361 0.0740267 -0.1485473
000340 64 2f c0 bd ff 45 8d bd f8 d5 47 be c4 37 88 bd
       -0.09384039 -0.06898116 -0.19515216 -0.066512614
000350 36 73 18 3e 82 b5 46 be dd 17 07 be 2b c7 1a be
       0.148877 -0.19405177 -0.13192697 -0.15115039
000360 fd 8a 38 3e e9 ad 17 bd 8f 19 e1 bd bc a2 41 be
       0.1802177 -0.037031088 -0.10991203 -0.18909734
000370 7c b4 de bc 88 87 15 bd 0d f5 2c bd 64 56 3d bd
       -0.027185671 -0.036506206 -0.042225886 -0.046224967
000380 99 d6 ac bc f8 53 81 3e 9b 09 24 3e 43 64 3a be
       -0.021098422 0.25259376 0.16019289 -0.1820231
000390 5c 86 52 3d 4d 6d f3 be 76 fb 38 3e a4 8e 1e be
       0.051397666 -0.47544327 0.18064675 -0.154841
0003a0 ef 5f 32 3b de 71 0e 3e c7 e0 e5 bd eb 4c 05 be
       0.0027217825 0.13910624 -0.112245135 -0.13017623
0003b0 0c 37 b3 3d 50 16 89 3d 99 59 9d 3d e5 35 05 3e
       0.08750734 0.06693709 0.07683105 0.1300884
0003c0 d4 0c c1 bc 17 68 3a be 08 10 d4 bb 73 79 fb 3d
       -0.023565687 -0.1820377 -0.0064716376 0.12279024
0003d0 35 7a be ba bb a6 23 3e 24 fa 43 3d 9e 92 76 3d
       -0.001453227 0.15981571 0.047845975 0.06019842
0003e0 16 5e 0c 3e 56 f9 80 be 0f 67 9b bd 8c 90 9c 3d
       0.13707766 -0.25190228 -0.07588016 0.07644758
0003f0 7a 79 9d bc 42 02 31 bc 11 d0 3b 3e 18 29 bb 3e
       -0.019222964 -0.010803761 0.1834109 0.3655479

convs.2.bias f4 [100]
000000 8e a4 ad be 6e 0d a9 be 1b 1b d3 be 39 7f ae be
       -0.33914608 -0.3301806 -0.41231617 -0.34081438
000010 32 d4 a8 be 73 99 5d be 72 f4 fc be 93 0e ad be
       -0.32974392 -0.21640567 -0.49405247 -0.33800182
000020 dd 38 01 bf 13 c1 a9 be 8d bd a7 be 38 67 ce be
       -0.5047739 -0.33155116 -0.32761803 -0.40313125
000030 00 fa f9 be 88 bb 13 be 7e 76 f8 be ae 46 92 be
       -0.48823547 -0.14427006 -0.48527902 -0.2856955
000040 a0 73 d0 be 15 06 65 be 64 44 17 be f0 82 e0 be
       -0.40713215 -0.22365601 -0.14772183 -0.43849897
000050 53 9f af be 92 e3 c7 be 5b 39 ab be cf 5b d0 be
       -0.34301242 -0.3904081 -0.33442196 -0.40695044
000060 de 6f b6 be cb 4d f4 be fc bd 91 be 72 0f 76 be
       -0.35632223 -0.477156 -0.2846526 -0.2402933
000070 e3 85 b4 be dd 0a e0 be 1a 6e ce be 61 cc 87 be
       -0.35258397 -0.43758288 -0.40318376 -0.26523116
000080 96 7a cc bd 76 94 ef be 89 12 b0 be 46 63 b4 be
       -0.09984319 -0.46792954 -0.3438914 -0.3523199
000090 0f 76 c1 be 57 2d 5f be f1 20 98 be 0d c0 ba be
       -0.37785384 -0.2179464 -0.29712632 -0.36474648
0000a0 0f 80 f8 be c3 bb 42 be 13 fe 22 bf dd fe 5c be
       -0.485352 -0.19016938 -0.63668936 -0.21581598
0000b0 65 56 b6 be 09 f1 c3 be ec 8a d2 be 91 20 9e be
       -0.3561279 -0.38269833 -0.41121614 -0.3088422
0000c0 a4 23 be be f4 5a 00 bf 7d 2f 6e be 37 3c 1a bf
       -0.37136567 -0.50138783 -0.23260303 -0.6024813
0000d0 64 02 e7 be 29 02 5c be 36 a5 0b bf 3c f5 aa be
       -0.4511901 -0.21485199 -0.54548967 -0.33390224
0000e0 74 6f ac be 87 f6 f7 be 26 4a 45 be f7 65 f2 be
       -0.33678782 -0.48430273 -0.19266567 -0.47343418
0000f0 7d 9a 9a be 1f dc fd be 19 47 02 bf 7b 65 c3 be
       -0.3019599 -0.49582002 -0.50889736 -0.3816336
000100 2f d7 ce be f4 0f 00 bf 27 f2 e7 be 8f 63 e6 be
       -0.40398547 -0.5002434 -0.45301935 -0.44997832
000110 d0 31 95 be 6e 31 e2 be 4a 30 bb bd 09 af 67 be
       -0.29139566 -0.44178337 -0.0914007 -0.22625364
000120 43 8b cc be 0b 35 80 be db 3a f6 be 56 f9 2c be
       -0.39949998 -0.2504047 -0.48091778 -0.16891989
000130 46 0d ac be 39 84 7f be 61 ab fa be e3 63 8e be
       -0.33603877 -0.24952783 -0.48958877 -0.27810583
000140 64 1d 76 be 6a 9d db be c2 c0 c0 be 3c 2b d4 be
       -0.24034649 -0.42893535 -0.37647063 -0.41439235
000150 fb 60 fc be 36 4a 90 be 97 a8 dc be 60 81 bf be
       -0.4929274 -0.28181618 -0.43097374 -0.37403393
000160 b3 c9 19 be 87 c7 af be ab 32 94 be 2c 8c ba be
       -0.15018348 -0.34331915 -0.28944907 -0.36435068
000170 90 b3 59 be 28 11 d6 be 44 65 a6 be 2d ce f9 be
       -0.21259904 -0.41809964 -0.32499135 -0.48790112
000180 bb 7c 52 be 21 91 5b be cc 16 b0 be 3a 0b 10 be
       -0.20555393 -0.21442081 -0.34392393 -0.14066783

fc.weight f4 [6, 300]
000000 07 a0 d6 be 04 d3 e6 3c 93 d0 bb 3d 10 ad 8d 3d
       -0.41918966 0.028176792 0.09170642 0.06917775
000010 54 d8 ba be ce 12 00 3f 26 5f 9b 3e af da ad be
       -0.3649317 0.50028694 0.3034603 -0.33955905
000020 bf cc b0 be 0b b6 01 bf 9e a8 e6 be e4 ad 1c 3e
       -0.3453121 -0.506684 -0.4505052 0.15300709
000030 c4 b6 f2 be 22 37 15 3e 3b 0e b6 be bd b0 84 3d
       -0.47405064 0.14571813 -0.35557732 0.06479023
000040 dc 41 c6 3d 8a 9b a3 3e 61 02 59 3e b2 d7 3e 3c
       0.096805304 0.31954604 0.21192314 0.011648105
000050 3f 13 23 bf b2 f4 22 bf 52 6b 6e 3e b6 32 15 3e
       -0.6370124 -0.63654625 0.23283127 0.14570126
000060 57 7f 9e be da dd 33 bd 91 db 9e be 71 55 69 be
       -0.30956528 -0.043912746 -0.3102689 -0.227865
000070 a0 98 7e bf 52 26 20 bf ed fe 68 3e d1 6d 10 bf
       -0.9945164 -0.6255847 0.22753496 -0.56417567
000080 aa 78 de 3e 5f b2 36 3d 94 a0 22 3c 76 72 2e bf
       0.43451434 0.0446037 0.00992598 -0.68143404
000090 23 52 2b bf e4 47 60 be be 97 17 bf 1e 60 2d be
       -0.66922206 -0.21902424 -0.59215915 -0.16931197
0000a0 36 7d 00 bf b2 b3 68 3d 79 a7 87 3e 46 41 bc be
       -0.50191057 0.056811996 0.2649496 -0.3676855
0000b0 ef 27 64 3e 64 a1 35 3f aa a5 89 3d 0e 11 dc be
       0.22280858 0.7094939 0.06721051 -0.42981762
0000c0 a2 c8 f0 3d d1 38 04 3e 0f 0a 76 3e 78 1e ea be
       0.11757018 0.12912299 0.24027275 -0.4572637
0000d0 35 ee 37 3d 2d c4 a0 bd 78 48 21 bf eb 4d 07 bf
       0.044904906 -0.078499176 -0.63001204 -0.5285327
0000e0 68 65 8b 3e 1c 8b 06 3f 29 71 de 3e 0e 4e 25 3e
       0.27225804 0.52556014 0.4344571 0.16143057
0000f0 ed d8 a5 bd 5a e0 6c bf 2d 4b 13 bf 6f aa 40 be
       -0.08098016 -0.92529833 -0.57536584 -0.18815015
000100 51 86 39 bf 1f 9b 1d bf 49 37 21 bf 3b 90 b6 3e
       -0.72470576 -0.6156482 -0.62974983 0.35656914
000110 63 a4 e7 3b 4a 18 73 bf 8e b5 a7 3e c4 77 ae bd
       0.007069157 -0.9495894 0.32755703 -0.08518937
000120 0d 02 11 bf 55 4c 98 3d b3 53 e5 be e4 ed 40 3e
       -0.56643754 0.07436434 -0.4479042 0.18840748
000130 8f 1d 56 3f ca cf 1d bc cf da cd 3e 5f 77 fe be
       0.8363885 -0.00963206 0.40206 -0.49700448
000140 cf 5c 56 3f ed a8 ff 3d a7 75 9d 3e fe 0d 85 3f
       0.83735365 0.12483392 0.30753824 1.0394895
000150 54 48 a0 be b2 a0 c6 3d f4 59 20 3d a3 5e 57 3e
       -0.31305182 0.09698619 0.039148286 0.21032195
000160 d3 ec b2 be 18 2b e0 3e 73 05 ed be 41 b5 e1 be
       -0.34946308 0.43782878 -0.4629322 -0.44083598
000170 d1 0f 90 3d f6 7f 15 3e 58 df 5d 3d 54 bc 0b 3f
       0.07034267 0.14599594 0.054168075 0.5458424
000180 48 61 7e 3e 15 bb ab 3e 9b 75 fc 3d b9 91 8d 3d
       0.24841797 0.3354117 0.12327119 0.0691256
000190 1c 20 b6 3d da 8e 1a be 97 e7 98 3d 41 56 18 bf
       0.08892843 -0.15093556 0.07466047 -0.59506613
0001a0 fc 84 40 bf 5c 0e 3a 3e ed b5 ed be 69 1a 86 bd
       -0.7520292 0.1816954 -0.4642786 -0.06548006
0001b0 4c 0a 62 3c d0 e3 d0 be d1 14 10 bd a7 65 d9 be
       0.0137964 -0.40798807 -0.035176102 -0.42460367
0001c0 26 a7 97 3d 55 cc b1 bc 0d 74 02 bf 3a 7b 1b 3e
       0.07404928 -0.021703878 -0.5095833 0.15183726
0001d0 81 82 c9 be 14 43 42 3f 01 c0 89 bd f2 5f 1d bf
       -0.3935738 0.75883603 -0.06726075 -0.61474526
0001e0 82 cf 06 bf 5d 90 b7 be ad 45 f4 be 40 85 51 bf
       -0.5266038 -0.35852328 -0.47709408 -0.8184395
0001f0 36 34 fa 3e 11 15 ca be 77 65 e1 be ea 07 7a 3e
       0.4886796 -0.39469197 -0.44022724 0.24417081
000200 7a b7 e1 3d 82 d0 70 3e be d5 d4 be f8 07 09 bf
       0.110213235 0.2351704 -0.41569322 -0.53527784
000210 d5 2f c6 be c9 9a 2c bf 48 64 26 bf 3e 32 c4 3e
       -0.38708368 -0.67423683 -0.6499677 0.38319582
000220 b9 aa 42 3e dc 5f 3f be 32 7c 56 bc 07 3e 1d be
       0.19010438 -0.18688911 -0.013091134 -0.15355693
000230 e1 04 d4 be db d5 19 3e fc 04 07 bf 0f 9e c0 be
       -0.41409972 0.15022986 -0.5274198 -0.3762059
000240 90 8a 37 bf ad 91 d9 be 85 f8 c4 3d 01 aa 22 bc
       -0.71695805 -0.42493954 0.09617714 -0.009928227
000250 52 1e 54 be b2 10 63 be 8b 5d da 3b 6c 7a 10 bf
       -0.20714691 -0.22174338 0.006663983 -0.564368
000260 df 98 42 3e 8b e0 a2 3e a0 31 14 3f 78 1a 75 bf
       0.19003628 0.31811938 0.5788822 -0.95743513
000270 0e 9e b8 be b0 e3 2a 3d 32 66 72 bd dc 58 90 3e
       -0.36058086 0.041721046 -0.059179492 0.28192794
000280 34 73 9b 3c 2b f7 75 3e 75 f8 ef 3e ad c7 b1 be
       0.018975832 0.24020068 0.46869245 -0.34722653
000290 2a 05 27 bf 90 bf 56 bf 54 b5 60 be f7 92 20 3e
       -0.65242255 -0.8388605 -0.21944171 0.15681063
0002a0 78 80 37 3e c6 e7 06 3e 04 fc 55 3e 0c 66 02 3d
       0.179201 0.13174352 0.20896918 0.0318356
0002b0 02 52 d0 be a0 c6 0c 3e a2 58 88 3d 01 8d 28 be
       -0.40687567 0.13747644 0.0665753 -0.16460039
0002c0 5e 20 12 be e5 95 41 be 43 94 e3 be 23 d3 1a bf
       -0.1427016 -0.18904836 -0.44449052 -0.6047842
0002d0 07 d4 a9 3d be 5a 80 bd c6 6e cf 3d 88 fe a4 3e
       0.08292394 -0.06267308 0.1012855 0.32225442
0002e0 aa 07 0e 3e 21 6f dd bd 65 36 52 bf 62 f4 0c bf
       0.13870111 -0.10812212 -0.8211425 -0.550604
0002f0 aa 29 d2 3e 22 42 68 be 42 56 70 3e 9a ea 0d bf
       0.41047412 -0.22681478 0.23470405 -0.554361
000300 26 b4 48 3e 6f 50 ad 3f 4d 62 6b be 1e 45 7a be
       0.19599971 1.3540171 -0.22986718 -0.24440429
000310 8e 5d 16 be df 03 fe 3b db 7d 93 be fc 62 7c bf
       -0.14684126 0.0077519263 -0.28806958 -0.9858854
000320 05 57 ee be 15 3b 0c 3e c2 70 70 3f b4 9d 4f be
       -0.46550766 0.13694413 0.93922055 -0.20275003
000330 33 a6 00 3f 67 9c 51 3e e5 d5 d2 3e cc 10 11 bf
       0.502536 0.20469819 0.41178814 -0.56666255
000340 8d ad 64 3f 8c b7 84 ba 2d de ff 3d 96 f2 e5 be
       0.8932732 -0.0010125502 0.124935485 -0.4491164
000350 ee 8d 3e 3f 7f 63 49 3d 63 db 25 3e c3 c1 29 3e
       0.7443532 0.049167152 0.1619697 0.1657782
000360 0a d2 e4 be 21 60 04 3e 98 52 8c 3d 51 80 1c bf
       -0.44691497 0.12927295 0.06851691 -0.61133295
000370 b8 1f 85 3d 2a 3d 17 bf 00 5a 27 bf 7b 58 06 3e
       0.065001905 -0.59077704 -0.65371704 0.1311969
000380 36 75 17 bf 91 65 2f bf fd 5a d0 3d 45 1b 0b bf
       -0.59163225 -0.68514353 0.10173605 -0.54338485
000390 5f 3b c3 3e fb 19 0c 3e ba 0b fb 3e 44 04 45 3e
       0.38131234 0.13681786 0.49032384 0.19239908
0003a0 6b 85 72 bd aa 6e 14 3e ee 41 15 bf 3d e3 8d be
       -0.05920927 0.1449534 -0.58303726 -0.27712432
0003b0 48 2f 36 bd 71 e0 e1 be a6 9d 42 bf 1d be 7c bc
       -0.044478685 -0.44116548 -0.760218 -0.015426186
0003c0 e0 14 92 3e 5a f9 ff bd 4e 2d 50 bf 21 e5 49 3d
       0.2853155 -0.12498732 -0.8131913 0.04929078
0003d0 be f3 34 3e 02 d7 46 3e eb 59 37 3f 05 cb a2 3e
       0.17671105 0.19417956 0.7162158 0.31795517
0003e0 8a 48 8f 3d bb 5d d1 3d ea 97 c3 3d ca 21 b8 3f
       0.069962576 0.10222956 0.0955046 1.4385312
0003f0 c8 10 14 bf 0f a2 4e 3e 85 09 30 bf 2f 25 bd be
       -0.57838106 0.20179008 -0.68764526 -0.3694243

fc.bias f4 [6]
000000 59 f9 70 3d 9b 88 63 bd 48 f0 17 3e ec a3 dd be
       0.058831546 -0.0555502 0.14837754 -0.43289125
000010 a0 fe e9 3e 6d b4 4e bf
       0.45702076 -0.8074406

exp_avg f4 [100, 100, 1]
000000 9c d6 46 3b d9 1b e6 bb 3b 51 96 3b be 8e 5d 3b
       0.003034032 -0.0070223627 0.00458732 0.0033807005
000010 c3 ab b3 3a 4d e8 65 3b ac cd e7 39 00 57 b4 35
       0.0013707805 0.003508109 0.0004421299 1.3436365e-06
000020 27 74 27 3b c5 c6 27 3a 21 f4 7e ba 67 fc 3e bb
       0.002555141 0.00064001634 -0.0009725709 -0.0029142143
000030 c4 ff 05 3a 53 e6 92 3a f6 6c 3c 3b e0 97 38 bb
       0.00051116594 0.0011207558 0.002875147 -0.0028166696
000040 ce 84 7c bb da 6c 7f b8 3b ec 7a b8 fe 96 cd 39
       -0.0038531306 -6.0898114e-05 -5.982465e-05 0.00039213145
000050 9e 31 29 bb 4a 2f 8a bb 23 4c e9 3a d4 7d 1a bb
       -0.0025816928 -0.004217063 0.001779918 -0.0023573535
000060 66 95 99 ba 77 51 58 3b 32 bf 77 bb 14 d0 16 ba
       -0.0011717498 0.0033007541 -0.003780317 -0.0005753052
000070 48 1e 89 38 c9 44 f5 ba de 19 88 bb a6 15 de ba
       6.5383094e-05 -0.0018712516 -0.0041534742 -0.0016943708
000080 0f 73 d4 ba f6 51 43 ba a0 d3 12 3a 48 32 1f ba
       -0.0016208607 -0.0007450873 0.00056009926 -0.0006072861
000090 4e 85 54 bb 3b 32 f4 3a 96 ed 87 3b 7d bc 65 bb
       -0.0032428089 0.0018630693 0.0041481955 -0.0035054975
0000a0 e6 11 fe ba 99 53 7c bb aa 14 ac 3b 09 2c 28 3b
       -0.0019383996 -0.0038501977 0.005251487 0.0025661013
0000b0 11 3f ce b9 38 9e e1 3a e4 f1 6a ba 83 3b b2 3a
       -0.0003933837 0.001721329 -0.0008962436 0.0013598058
0000c0 12 db fe 3b f6 c7 8b 39 0f 59 99 bb c8 6e 7a 39
       0.00777758 0.00026661129 -0.004679806 0.00023883127
0000d0 ee e2 f5 b9 61 19 ac b9 0c 98 ec ba 72 a8 de 3a
       -0.00046899117 -0.00032825305 -0.0018050685 0.0016987456
0000e0 47 47 e6 38 82 15 fb 3a 40 1b 2a 3a 29 d6 47 3b
       0.00010980531 0.001915619 0.0006489046 0.003049264
0000f0 28 64 3d 3b 94 73 6a bb 6a cf a0 3b 6f c5 e6 3a
       0.002889881 -0.0035774456 0.004907538 0.0017606447
000100 74 ab 84 bb 03 18 b8 3b 5d c5 2c bb 79 6b 15 ba
       -0.004048759 0.005618097 -0.0026362755 -0.00056999136
000110 b1 6f 87 b9 df 0e ea b8 20 84 34 bb 3a 95 9d b8
       -0.00025832423 -0.000111607595 -0.0027544573 -7.514139e-05
000120 93 a9 15 ba 9d 83 04 3b 9b 60 58 3b 46 e8 19 3b
       -0.00057091675 0.002022005 0.0033016566 0.0023484393
000130 e4 d8 64 bb 97 5b 98 bb 06 90 c1 39 86 42 52 bb
       -0.0034919316 -0.0046495902 0.00036919134 -0.0032083108
000140 3b ca 47 bb 85 00 6d 3b 02 00 a0 bb 4b 0a 15 bb
       -0.003048553 0.003616364 -0.0048828134 -0.002274173
000150 2f db 83 3a 04 50 18 bb 86 4e 30 3b db a4 bd 3a
       0.0010059829 -0.0023241052 0.0026902272 0.0014468686
000160 84 0f 89 ba f4 dd 49 ba 01 46 49 bb 25 ee 33 ba
       -0.0010456895 -0.0007700615 -0.0030711892 -0.00068637944
000170 16 2a ff ba ed 1b fc b8 03 64 75 3b 65 27 0a 3b
       -0.0019467499 -0.00012021498 0.0037443645 0.002108061
000180 43 00 87 bb a2 38 da 39 a8 ba ca ba e1 fe fa ba
       -0.0041199042 0.00041622395 -0.0015467005 -0.0019149446
000190 a8 17 ac 38 de ab d7 b8 42 8c 63 3b f5 f1 e4 ba
       8.2060054e-05 -0.00010284012 0.0034721051 -0.0017467128
0001a0 4d 46 02 bb d6 2d 25 bb 93 0f 1f ba 4d 2a bf ba
       -0.0019878328 -0.0025204322 -0.00060676894 -0.001458475
0001b0 f8 6a d3 ba 15 34 9b 3a f4 d8 0c 3b 55 c1 38 3b
       -0.0016129902 0.0011841083 0.0021491619 0.0028191407
0001c0 c4 63 90 3a 6d f5 fd ba 0c b4 e9 39 c8 0f 35 bb
       0.0011016061 -0.0019375511 0.00044575369 -0.0027627815
0001d0 b8 b4 85 ba 91 19 14 bb b3 d7 f0 ba be c9 64 bb
       -0.0010200953 -0.0022598247 -0.001837483 -0.0034910287
0001e0 17 3b 30 3b cd 64 db 39 d6 c8 ed ba d8 ab bc ba
       0.002689069 0.00041846037 -0.0018141519 -0.0014394475
0001f0 4f 9c c8 bb 0a 83 3c 3b fa 0e 25 3a 87 ed 41 bb
       -0.006122149 0.0028764629 0.0006296482 -0.002959104
000200 f9 0c ce ba b0 e4 1a 3b 16 a8 1a 3b a3 2f 71 3a
       -0.0015720419 0.0023634844 0.0023598722 0.0009200519
000210 80 a9 ce b8 ba 82 45 3b 85 17 ed ba 59 79 a4 bb
       -9.854417e-05 0.0030137734 -0.0018088674 -0.0050193486
000220 13 fc a7 bb 50 f7 34 3b c0 ad 8a 3a 05 42 8f ba
       -0.005126485 0.002761323 0.0010580346 -0.001092971
000230 e6 0f 05 3b fc f6 b4 ba df b7 05 3b b3 62 9d bb
       0.0020303666 -0.0013806517 0.0020403785 -0.0048030256
000240 56 15 0f bb c0 d0 ac b8 fa fa 96 ba 21 77 10 3a
       -0.0021832786 -8.240482e-05 -0.0011518889 0.00055109157
000250 bc 11 96 ba 47 d0 6b ba 41 14 73 bb cc 13 36 bb
       -0.0011449377 -0.00089955743 -0.003709093 -0.0027782796
000260 80 51 02 bb bb 2f 42 3a 9d 6b 30 ba 40 4e 92 3a
       -0.0019885004 0.0007407625 -0.0006729903 0.0011162236
000270 22 5b e5 ba 2c 09 db b9 ee a8 aa ba f1 3d 0b 3b
       -0.0017498473 -0.0004177777 -0.0013020316 0.0021246637
000280 c2 2e f5 ba 94 27 25 bb 62 de 33 bb 28 70 da ba
       -0.0018705952 -0.0025200592 -0.0027445783 -0.0016665505
000290 dd d9 d8 ba 80 8b 57 b7 50 16 86 39 e0 1a 31 39
       -0.001654442 -1.28474785e-05 0.00025575096 0.00016890047
0002a0 8f 6f 3a 3a 5c 7c db 3a 84 d8 15 3b f0 1e 1d ba
       0.00071119604 0.0016745436 0.002286465 -0.0005993685
0002b0 5e 52 2d 3b dc c0 39 3b 2a f0 38 bb 30 c0 c4 ba
       0.00264468 0.0028343713 -0.002821932 -0.001501089
0002c0 07 17 86 bb 40 c7 c6 b8 e7 2f 9c ba 82 8a 42 bb
       -0.0040921005 -9.478489e-05 -0.0011916131 -0.0029684608
0002d0 cb 10 06 3b d0 8a 4a bb ba dc a0 3a b1 d4 a8 3b
       0.0020456787 -0.0030905493 0.0012272813 0.005152308
0002e0 f7 cc 2b bb 78 94 0d 39 b6 87 06 3a 8c f5 40 3b
       -0.0026214698 0.00013502117 0.0005131917 0.0029443232
0002f0 c0 6d 4a b8 09 5e 5b bb fa 15 87 3a a4 d8 8f ba
       -4.8262766e-05 -0.0033472797 0.0010306232 -0.0010974598
000300 ec d6 ef ba 9a b4 e9 3a 9c a3 4e bb 5c 40 1d 3b
       -0.0018298305 0.0017830313 -0.0031530624 0.002399466
000310 29 69 56 3b 30 8e 32 b9 6c f5 ac bb f6 93 63 3b
       0.003271649 -0.00017028372 -0.00527828 0.0034725643
000320 14 f9 c5 ba d0 87 a6 ba 87 35 90 3b a1 d5 af ba
       -0.0015104138 -0.001270527 0.004400912 -0.0013415107
000330 33 d0 16 3a 11 c4 a7 3b d8 28 55 39 36 1b 1e ba
       0.000575307 0.0051198085 0.00020328478 -0.00060312764
000340 39 2a b9 ba 9e 8c 91 bb 14 4b a2 ba 0b a9 e9 ba
       -0.0014126963 -0.0044418117 -0.0012381994 -0.0017826868
000350 8d 78 55 3a 95 77 85 3b f8 38 07 b9 91 0f 63 3a
       0.00081432686 0.004073093 -0.00012895826 0.00086616824
000360 76 67 27 3a 01 5f ca ba d3 11 02 3b 54 02 27 3b
       0.00063859613 -0.001543969 0.001984705 0.0025483565
000370 29 0a 2b 3a fb 31 76 bb 91 8b 55 ba 44 ba 41 bb
       0.00065246463 -0.0037566412 -0.0008146102 -0.0029560486
000380 50 8f 61 bb 78 02 f9 39 47 86 02 3b a8 20 ef b7
       -0.0034417696 0.0004749482 0.0019916461 -2.8506227e-05
000390 e6 10 53 3a aa 44 d9 ba ca 24 2d 3b fd 94 c2 ba
       0.00080515293 -0.001657625 0.0026419633 -0.0014845427
0003a0 2a 90 39 39 ba 92 e9 3a b2 39 fc ba 97 8a 65 3b
       0.0001769668 0.0017820217 -0.0019243269 0.0035025233
0003b0 6a 17 f9 b9 e8 d7 d5 ba 0c a0 2e 3b f8 78 39 39
       -0.00047510426 -0.0016314955 0.0026645688 0.00017688039
0003c0 fc 57 fd 38 6d 98 84 bb 1f 15 7d 3b e7 bc 09 3b
       0.000120803685 -0.004046491 0.0038617325 0.0021017136
0003d0 54 bf b3 ba 26 d6 12 3b 7a 5e df 39 26 6d 7b 3a
       -0.0013713636 0.0022405474 0.00042604265 0.00095911545
0003e0 ec 8c e3 38 2d 64 99 3b c2 21 d5 ba 4c 3d 79 ba
       0.00010850452 0.0046811313 -0.0016260671 -0.000950773
0003f0 b0 b9 60 3a 2f ae b5 b9 42 b9 5e 3a f5 c9 05 bb
       0.00085725915 -0.00034652787 0.00084962335 -0.0020414565
